model-PPOACAgent-finish.pth (torch_old, 54242 bytes, 12 tensors)

std f4 [4]
00000000: b2a0 763f cff7 0a3f f4e0 863e 4593 b43e
0.9633895 0.54284376 0.263435 0.35268608

actor_body.layer1.weight f4 [64, 33]
00000000: 8f82 f43e 71a3 5f3d 30f7 4cbc e190 74be
00000010: c177 e43e 08a6 983d b53c 87be 97fb 30be
00000020: 0754 933d f7c1 193f c119 c73e 5146 803e
00000030: 9eef 41be 7364 c53c 8612 023e bf60 10be
00000040: af59 32be 3620 b0be b3f1 c1bd e6e1 4f3e
00000050: b76b 31be 06aa 95be b9d6 da3e 6e8a 90bd
00000060: ef29 c33d 5be5 e63c 3eca 413e 0de2 dd3d
00000070: 1022 4dbd 8862 7b3c 7945 65be 8069 e2bd
00000080: ccb0 313d 6909 69be a1ec b03d eb23 a8be
00000090: 0710 c6bd b164 bfbe f357 343e 7de4 c13d
000000a0: 86c4 bbbd 5089 1fbe 1a60 99be 79d2 26bd
000000b0: 0da6 0a3e 974b a9bd 6922 dd3d 1b90 dfbe
000000c0: 8251 463c 8dfb 553e 263f 833e 1e43 1cbd
000000d0: 77ab f43d f7ad 9c3d 528f 9cbe 6886 97bd
000000e0: e347 a2bd 7bca abbe c3a1 7c3d a1fb 89be
000000f0: 13bb 1ebd fc30 f93d 05db 04be efa3 88bc
00000100: 2f31 d33d 3696 cfbe 2c93 ca3e 0a03 83bd
00000110: a427 b0be 9094 013e ffe3 2a3e 9e96 8e3e
00000120: 9077 c0bd bf9a 743e 4d72 cb3d d789 263d
00000130: eabf 853e 64aa 4fbe dfd6 94be 4ec5 203e
00000140: 52f3 07be d42e 3ebd c01b 4fbe 9e92 e0bd
00000150: 962f 30bd adbe 07bc f76c 2f3c be9e 703e
00000160: 1a6b 743e de1b d6be 0a4e 993d e700 fdbd
00000170: 26bb 11be 988a ae3d 8fb9 853e ae7d 15be
00000180: 8cc1 76bd 5c71 ba3d 9ee8 41be 4150 233e
00000190: 386b 57be 6536 cfbd 49ed b43e 32f4 56bd
000001a0: 8e81 893d 293e 9ebe fb25 9bbd eb89 2f3e
000001b0: 3749 b73c d965 2c3e 3cf9 3ebf abd8 41bd
000001c0: a277 79ba 5ef6 fcbc d93e f2bc 5c3a 17bf
000001d0: 6082 17be c79e 0fbc 6d3b e53d 7cba 44be
000001e0: 1242 21bc ff07 84be ddde 8c3e 504b 11be
000001f0: 9765 b3bd b61d 45be 4503 b03d 05a8 ac3e
00000200: 7175 e33d c42b 41bc 034b 18be b331 e13e
00000210: 2847 44be 1012 8c3d 8438 62be 3c0a 07bd
00000220: 7759 29be b802 993e 4513 0e3e a45c d0bc
00000230: 724e b0bd 1bc2 8f3c dda0 5fbe 05ab 4f3d
00000240: 0ea8 dabe ddfd 033e d65f d0bd eb5d 72bc
00000250: 8ef8 ddbe d18f 833e 0064 0dbe e519 0c3f
00000260: d01d a7be bfd7 633e c3e9 93be 57bc 2c3a
00000270: 6ea5 d03d 8c70 d0be 67f3 3d3e 1064 053e
00000280: b822 ba3d d891 df3a 9e04 1c3e f43c c93c
00000290: 37a3 c43e 129d 003d c569 28be 153f 6c3d
000002a0: c76d 2ebe ce02 ed3d da2e 0dbe 9bd6 6ebd
000002b0: 8527 963e b9d6 8cbe 6973 093e c93d 163e
000002c0: 0aa5 933e 79d9 b1be fc85 13bd a70f df3e
000002d0: a622 b1bd c419 bfbe 5565 2f3e 2b0e 263e
000002e0: a8db 4e3e 0e08 15be 056d c8be 851d 28be
000002f0: c388 fcbc c36f 0b3d 63c8 0dbe eac7 45bd
00000300: 04e2 883d af89 2dbe 8cf0 7ebc abe3 33bd
00000310: 764c 54bd 2482 503f b9a9 f53e 836f 38be
00000320: 93cb 873d 9509 dcbb 65b8 653e c856 5dbe
00000330: feab d33e 8971 edbe ba50 b9bd 03a6 2a3e
00000340: f633 a8bd d20d 3abe 8753 263e 063e 8f3d
00000350: 76c8 893d c1c3 95be dd04 a4bd aff9 15be
00000360: 57f0 96be 0c4c 24be 60e2 3a3e b43f d3bd
00000370: bae9 7d3e 99a1 07bd 57eb 923e b70a 30be
00000380: 2387 a1bd 5f40 d7be 545f bc3b d50d b8bd
00000390: 415f 023e 581c 2dbb 92fb 373f aebc 0fbe
000003a0: 74a1 0d3e 8b30 d0bd 7b9a 0abe ffe2 503e
000003b0: 50fb aebd 1c09 be3d 16bf b13e 9921 d1be
000003c0: edda 28bc c521 7fbe bcee b2be 657e f5bc
000003d0: a8c1 923d 1190 a3bd c559 cc3c 202d 25bf
000003e0: 0ed0 37be 99e2 35bc 592e 18be 1ab7 803e
000003f0: 3dd1 e73c 64cc 0c3e 2d9f b63d a99a 56be
0.47755858 0.05459923 -0.012510106 -0.23883392 0.44622615 0.07453543 -0.26413503 -0.17283474
0.07193761 0.6006159 0.38886836 0.25053647 -0.18939063 0.02409575 0.12702379 -0.14099406
-0.17417024 -0.34399575 -0.094699286 0.20301017 -0.17326246 -0.2923128 0.42741945 -0.07057653
0.095294826 0.028185537 0.18924806 0.108341314 -0.050081313 0.015343316 -0.22389783 -0.11055279
0.043381497 -0.22757496 0.086388834 -0.32839903 -0.09671026 -0.3738151 0.17611675 0.09467409
-0.09168343 -0.15579724 -0.29956132 -0.040728066 0.13539906 -0.08266371 0.10797579 -0.4366463
0.012104394 0.2089674 0.25634116 -0.038149945 0.11946767 0.07650369 -0.30578095 -0.07398683
-0.079238676 -0.33552918 0.061677705 -0.2694979 -0.038752627 0.12167546 -0.12974174 -0.016679732
0.103121154 -0.4054429 0.39565408 -0.06397064 -0.34405243 0.12654328 0.16688536 0.27849287
-0.09397805 0.23887156 0.099339105 0.040658798 0.2612298 -0.20279843 -0.29070184 0.15700266
-0.13276413 -0.046431378 -0.2022543 -0.10965465 -0.04301413 -0.008285207 0.010707132 0.23498055
0.23868981 -0.41818136 0.07485588 -0.12353688 -0.14231548 0.085225284 0.26118132 -0.14598724
-0.060243174 0.09103653 -0.18936393 0.15948583 -0.21036994 -0.10117797 0.35337284 -0.052478977
0.06714164 -0.309068 -0.075756036 0.17142455 0.022373779 0.16835727 -0.7459905 -0.04732577
-0.0009516423 -0.030879196 -0.029570984 -0.59073424 -0.14795828 -0.008765883 0.11192975 -0.19211763
-0.009842413 -0.2578735 0.2751378 -0.14188886 -0.08759611 -0.19249615 0.085943736 0.3372194
0.111063845 -0.01179022 -0.14872365 0.4398323 -0.19167769 0.06839383 -0.22091872 -0.032968745
-0.16538034 0.29884887 0.13874538 -0.0254348 -0.08608712 0.017548611 -0.21838708 0.050700206
-0.4270634 0.1288981 -0.10174529 -0.0147929 -0.43353695 0.2569566 -0.13807678 0.5472701
-0.32639933 0.2225027 -0.28889284 0.0006589344 0.10187803 -0.40710866 0.18549882 0.13026452
0.09088653 0.0017057015 0.15236136 0.024565198 0.38405773 0.031399794 -0.16446598 0.057677347
-0.17034064 0.115728006 -0.13787404 -0.058310132 0.29327026 -0.2750757 0.13422932 0.14672007
0.28836852 -0.3473623 -0.03601645 0.4356663 -0.08649187 -0.37324345 0.17128499 0.16216342
0.2020098 -0.14553854 -0.39145675 -0.16417511 -0.030826932 0.03404213 -0.13845973 -0.048286356
0.06683734 -0.16947053 -0.0155602805 -0.043918293 -0.05183073 0.8144858 0.4798105 -0.18011288
0.066306256 -0.0067150095 0.22433622 -0.21615136 0.41342157 -0.46375683 -0.090486005 0.16664891
-0.08213036 -0.18169335 0.162428 0.06994252 0.06727688 -0.2925091 -0.0800874 -0.14646028
-0.2948024 -0.16044635 0.18250418 -0.10314885 0.24796191 -0.033113096 0.28695175 -0.17191587
-0.078871034 -0.420413 0.0057486687 -0.08987013 0.12731649 -0.00264146 0.7186824 -0.1403682
0.1383112 -0.10165509 -0.13535492 0.20399092 -0.08544028 0.09279081 0.347161 -0.40845945
-0.010306102 -0.24915226 -0.34947765 -0.029967496 0.07165843 -0.07986463 0.02494515 -0.6452198
-0.1795046 -0.011101388 -0.1486143 0.25139695 0.028298015 0.13749844 0.08917079 -0.20957436

actor_body.layer1.bias f4 [64]
00000000: 1df5 76bd 5217 c73c 8c94 973d c411 c93d
00000010: 4191 8fbd c5fe bfbd 6a39 9e3d 8c80 5abd
00000020: 7c3b 2fbe 78ed 6dba 9f92 e9bd ae05 8a3d
00000030: 2cdb f53a 04bd 1cbd 9f6c 093e bb7e b5bc
00000040: 2f31 33be 7207 8abd c5a8 433d ec82 31be
00000050: e976 90bd 420a 01bd df7c 5dbc c4ba 61bd
00000060: b91f e03d 4d0a d23d 617a 7a3d 3fb4 f5bd
00000070: 0941 7cbd 180f a93d 9eac d9bd cfb3 a43c
00000080: 8e9d dbb8 f074 6c3e e0d1 f8bd a136 923d
00000090: b041 96bd 12d1 fd3d 664c 303e 2ae8 53bd
000000a0: 2dbd 163c bae5 79bd 4e97 eebc ac5b dbbc
000000b0: e4cb 8fb8 dccf 963d f29d 933d 9378 dd3c
000000c0: 9a2f d73c 9252 7d3c fdff 583d bfee 64bd
000000d0: 1eee 39bb 6b52 62bc 322e dfbd 5910 d7bc
000000e0: 1e74 35be a36d c33d e5f9 4b3d bdfd 6abd
000000f0: 797d b1bc bd20 d83b 20de c83c d1d9 073d
-0.060292352 0.024303112 0.0740138 0.09817842 -0.07010127 -0.09374765 0.077257946 -0.053345248
-0.17112535 -0.0009076218 -0.11404919 0.067393646 0.0018757335 -0.038266197 0.13420342 -0.022155156
-0.17499231 -0.06739701 0.047768373 -0.17335099 -0.0705393 -0.031503923 -0.013518541 -0.055109754
0.109435506 0.10255871 0.061151866 -0.1199727 -0.06158546 0.08254832 -0.10628627 0.02010527
-0.000104720806 0.23091483 -0.121494055 0.07139326 -0.07336748 0.123933926 0.17216644 -0.05173508
0.009200376 -0.0610101 -0.029124882 -0.026777111 -6.856749e-05 0.07363865 0.0720786 0.027035033
0.026267815 0.015461581 0.052978504 -0.05589175 -0.0028370689 -0.013813595 -0.10897483 -0.026252912
-0.17720076 0.09542396 0.049798865 -0.05737089 -0.021666275 0.0065956996 0.02451998 0.03316671

actor_body.layer2.weight f4 [64, 64]
00000000: e5b8 bc3e 1e40 2fbd de17 2c3e 631c e13c
00000010: 0108 26bd 4811 263d 19ec 8abd 272b d3bc
00000020: bb7c d13c 5124 9f3e af04 5dbd bff5 ab3d
00000030: f3e9 8b3d e4fa d3bd f9d9 5ebe 78fd e23c
00000040: c75f 0ebd a83b 6f3d 9bc2 3fbe f5dd 6cbe
00000050: d907 01bf fc9b 7ebd 68cb 783d a1cc 1bbd
00000060: 2fda 9a3e c2e4 36be b821 2fbe dc4f 72bd
00000070: 3ad4 613e 5630 70be 4a50 61bd cc0d 8bbd
00000080: 5202 6f3d b618 9dbe 9290 97ba bf3c bbbd
00000090: 6005 ddbb 4d3b c2be 7314 bc3e 0b6f 243e
000000a0: c12f 68be 014b 1a3e 4baa 503e 4870 243e
000000b0: 0ed9 933e 7536 473e b95b 893e 1e09 9ebd
000000c0: c3ee c8be 3141 62bd 20d5 2fbe 0719 b33d
000000d0: b3cc 3a3e 2bbd 87be 44f9 2a3d d470 2abe
000000e0: 41bf 913d 666a 27be 9010 f4bd cbf6 033e
000000f0: 5805 5cbe a216 993e 46da 5ebe 4c95 e7bd
00000100: 2aa4 4ebe 4dbd 53be 7322 843e a5b8 753e
00000110: aec3 363d 3dc4 4a3e efee 1c3e 7ac5 3f3d
00000120: 0301 cb3d 4fc0 d63c 5b3c 22be 5ccc 94be
00000130: a70f 8bbe efe6 6d3e a062 03be a23e 7abe
00000140: 17ea a6be 50da 24be c447 db3d 3d5b 5dbe
00000150: a80d a43d 73f2 8abc 6754 cdbb 4d7d 923d
00000160: 826c 8fbd 65cf 88be a711 03be a5b8 043e
00000170: f51f 4bbf 8acc e0be 1a94 48bd a945 b8be
00000180: 3d83 64be 967e 773e 61af 7e3c 0394 1e3e
00000190: 8881 8c3c 6c59 9c3d 9a48 fb3c b6ce a8bd
000001a0: 32a3 86bd eac2 e13b 6f21 643e 57ef 963e
000001b0: d441 38be 231a fbbd ee8b 483e 4b38 6cbe
000001c0: 2b74 9a3e 7727 813e d814 7bbe 40f8 cc3d
000001d0: 2c9d d53d b3f9 923e a25c 7b3e 7f16 a1be
000001e0: 1ed7 683e 13db be3d c912 123e c3c8 af3d
000001f0: dcfa 34bd c740 ab3d 56c0 5c3e fffc 9a3e
00000200: c784 cd3d 9b82 28be 466b 24bb 9c4a 7b3e
00000210: c7ae 0b3f 9fd3 03be cca8 c83b 31a1 99be
00000220: 6e6d a9be 5c3c 443e 027b 90be f3b3 bebc
00000230: 5aa7 cc3e 4b53 3cbd fcda 7abe 5ca7 f6be
00000240: 7e7e 293e 68b2 963d 9a74 a1be 113a f03e
00000250: 7eb0 3f3d eb6f 36be 3d09 de3d ca03 77bd
00000260: 48b9 92be 9281 3e3e ce90 d83d 31f0 12be
00000270: 0603 b83e 48d1 17bd 805a 023e 71b5 883e
00000280: e0d0 01be 9f48 59be d814 f8bd eccd 1f3e
00000290: a630 c6bb d30b 6abe d4ba f1be 0f05 28bd
000002a0: c314 b4bb 88d4 b43d 2f66 d2bd 1cdf 2b3e
000002b0: 028f 1e3e 8a70 0d3e 60bb d73e 79ec d03d
000002c0: b327 663d 6c21 03be 92e5 1fbd e9ea 5ebe
000002d0: 4a91 65bc a986 6fbd cbb0 f8bd d722 11be
000002e0: 170b a63d 6919 99bd 539f d6bc 58f0 9f3d
000002f0: bf37 da3e e9a0 1fbc 95b8 e6bc c309 20be
00000300: c2d3 62be fbe6 9ebe 25b1 823e bd2b 9f3c
00000310: 4b23 1a3e 2297 0ebe 7423 793e 4a99 f83c
00000320: fbf6 5abd b6f5 bfbc 1c36 8f3e f896 4dbd
00000330: a15f adbd a9fb b33d 2d60 4dbe f45d a13d
00000340: 917c c53e 418d d5bb 99fb a73d 7332 1d3e
00000350: a277 54be eb79 2fbe b38b b03e e88a d4be
00000360: d6b6 67bd f9e5 7e3d 2708 633e 8fad 983e
00000370: 240b 18be 407c 34be fa86 2d3d 8b46 84be
00000380: c428 e5bc 2879 90be 4991 ee3d a667 a83e
00000390: 2da1 d83d e669 ddbd 02c9 bf3e cecd 4cbd
000003a0: 1838 80be ff63 36be c215 6cbe 9d40 86bd
000003b0: 80a1 223e 359c 94be 3a8f 4bbd b81f 59be
000003c0: eef5 7c3c 7825 b7be 5848 a53e 8926 143e
000003d0: 97f0 aa3d 5f73 233e feac 13bd 403c eb3d
000003e0: 63dc 313e 62db 6d3e 6af8 133e fd12 36be
000003f0: 6e4a 30be 3e94 bf3d 200b 70be 6c0c 6dbc
0.36859813 -0.042785756 0.1680598 0.027479356 -0.040534977 0.040543824 -0.06783313 -0.025777413
0.025572171 0.31082395 -0.053959545 0.08396482 0.06831732 -0.10350588 -0.21762837 0.027708754
-0.03475931 0.058406502 -0.1872658 -0.23131545 -0.504026 -0.062160477 0.06074086 -0.038036946
0.30244586 -0.17860702 -0.17102706 -0.05915819 0.22053614 -0.23455939 -0.05500821 -0.06789741
0.058351822 -0.30682915 -0.0011563471 -0.09142446 -0.0067450255 -0.37935868 0.36734352 0.16057985
-0.22674467 0.15067674 0.20377462 0.16058457 0.28876537 0.19454367 0.2682779 -0.07716583
-0.3924466 -0.055237953 -0.17171144 0.08745008 0.18242149 -0.2651151 0.041741624 -0.16644603
0.07116557 -0.16349182 -0.119172215 0.12887113 -0.21486413 0.2990008 -0.21762952 -0.11307773
-0.20179811 -0.20677681 0.25807533 0.23996218 0.04462021 0.19801421 0.15325521 0.046819188
0.09912302 0.026214747 -0.15843336 -0.29062164 -0.2716038 0.23232625 -0.12830591 -0.24437955
-0.3260047 -0.16098905 0.107070476 -0.21616836 0.08010417 -0.016961312 -0.006266165 0.071528055
-0.07003118 -0.2672073 -0.12799703 0.12961061 -0.7934564 -0.4390605 -0.048969366 -0.35990646
-0.22315688 0.24169382 0.015544743 0.1548615 0.017151609 0.07634243 0.030674268 -0.08242552
-0.06574096 0.0068896906 0.22278379 0.29479477 -0.17993861 -0.122608446 0.19584629 -0.23068349
0.30166754 0.25225422 -0.2451967 0.100082874 0.10430369 0.2870613 0.24547055 -0.31462476
0.2273831 0.09319129 0.14264978 0.08583214 -0.04418455 0.08361965 0.21557745 0.30271146
0.10035091 -0.16456072 -0.0025088354 0.2454018 0.54563564 -0.12873696 0.006123638 -0.30005792
-0.330913 0.1916365 -0.28218848 -0.023279166 0.3997143 -0.045977872 -0.24497598 -0.4817456
0.16552159 0.07358247 -0.31534272 0.469193 0.046799175 -0.17816131 0.10841606 -0.060306348
-0.28656983 0.18604115 0.10574494 -0.14349438 0.35939807 -0.03706482 0.12729836 0.2670093
-0.12677336 -0.21219109 -0.12113351 0.15605897 -0.00604828 -0.22856073 -0.4721285 -0.04102045
-0.005495639 0.088295996 -0.10273396 0.16784328 0.1548424 0.13812461 0.42135143 0.102013536
0.056190204 -0.12805718 -0.039037295 -0.21769299 -0.01401169 -0.05847803 -0.121430956 -0.14173447
0.08107584 -0.0747555 -0.026199019 0.07809514 0.42620656 -0.009742954 -0.028164187 -0.15628724
-0.22151092 -0.310356 0.25525776 0.019430036 0.15052526 -0.1392484 0.2432993 0.030346531
-0.053458195 -0.023432594 0.2797097 -0.050192803 -0.084655054 0.08788235 -0.2005622 0.07879248
0.385716 -0.006517083 0.08202285 0.15351276 -0.20748761 -0.17136352 0.34481582 -0.41512227
-0.05657085 0.062231038 0.22171079 0.29819915 -0.14848 -0.17625523 0.04236505 -0.2583507
-0.02797354 -0.28217435 0.11648805 0.32891577 0.10577617 -0.10811214 0.37458044 -0.05000096
-0.25042796 -0.17811583 -0.23055175 -0.06555293 0.1588192 -0.29025427 -0.04969714 -0.21203506
0.015439494 -0.35770774 0.32281756 0.14467825 0.0834667 0.1596198 -0.03605365 0.11486101
0.17369227 0.23228219 0.14450231 -0.17780681 -0.17215893 0.09354447 -0.23441744 -0.014468294

actor_body.layer2.bias f4 [64]
00000000: 9e5c 45bb 8058 0cbd 7a4e 13be 8194 2abc
00000010: 75b4 333d 700e 9abd 4d55 993d 2f0e c23c
00000020: 2872 1e3d f09f b13a fb39 1f3c 61e6 b4bc
00000030: 8aa7 8abe 99c3 39bd 7af6 e5bd ef25 8cbc
00000040: 6b21 81bd 8f4d 03be d5ff 7e3d 0899 70bd
00000050: 548c d1bc ff3f 313c 4258 30bc 9ce4 fa3c
00000060: 9cf4 9f3d 8d53 febc cf00 15bc e4ec 0b3d
00000070: 43b4 a4bc 9dec e43b 7855 4ebd 8b60 773d
00000080: d9f3 58bc cbff 29bd 8c23 9cbd 5f95 7e3d
00000090: 6bc1 28bd a555 22bd 2ae3 163d 75a9 19bd
000000a0: e7ef febc 932b 99bd c130 f03d e8b9 05bd
000000b0: 5245 c63d 2439 a4bd 3957 7b3d e001 d43c
000000c0: 984f 7d3d 162f 57bd 5771 8fbd e840 06be
000000d0: 019e 0dbd faad 83bc 06d4 9b3d 06c3 10bd
000000e0: fba1 50bb f987 b2bd 1a50 e6bc b3ca bfbb
000000f0: 6747 12bc 1821 c6bc 9971 12bd 4771 813d
-0.0030115019 -0.034264088 -0.14385405 -0.010411383 0.04387327 -0.07522285 0.07486973 0.023688404
0.038683087 0.0013551693 0.009718413 -0.02208251 -0.27080947 -0.045352552 -0.11228652 -0.017107932
-0.06305202 -0.12822555 0.0622557 -0.058739692 -0.025579609 0.0108184805 -0.01076323 0.030626588
0.078103274 -0.0310457 -0.009094431 0.034161463 -0.020105487 0.0069862143 -0.050374478 0.060394805
-0.013241732 -0.04150371 -0.076239675 0.06215417 -0.041200083 -0.03963246 0.036837734 -0.037515122
-0.031120254 -0.07479014 0.11728049 -0.032647997 0.096811906 -0.08018711 0.06136248 0.0258798
0.061843485 -0.05253514 -0.0700404 -0.13110697 -0.034574512 -0.01607417 0.076088 -0.03534224
-0.003183483 -0.08717341 -0.028114367 -0.005853021 -0.008928156 -0.024185702 -0.035752866 0.06320434

critic_body.layer1.weight f4 [64, 33]
00000000: 58ea 633e cd67 783e 325c 90be fb4d 1c3f
00000010: 77ce 003e 9206 f3be 4c51 b4be a628 943d
00000020: 900f b43c a61f 05be aaea 753c 5aeb 403c
00000030: 869e f0bc a263 1cbe 2ace 31be aae2 3f3e
00000040: d839 3e3e 61c8 293f d31c 213f b273 233f
00000050: c1b7 2dbd 0575 273d e298 823c bde3 953c
00000060: 66bf c4bc 45ea cdbc 2e0f 643d 5861 56bd
00000070: 8b1d f03c 9931 9e3d 8d91 7d3e 2722 6fbd
00000080: 5bf5 f9bf 7a9b cbbc 40d2 39bd d34f 60bd
00000090: 62c4 1b3e ef21 713d 995c ccbe d359 77be
000000a0: debc a5bd 0e03 a53c 2b55 e4bd 4db0 593c
000000b0: 8ce9 393c 21d6 d8bc b6f3 843d c2ee cc3c
000000c0: d09e ac3d 5f0a a2be d503 2dbf 7d70 863d
000000d0: 29c5 043f 8e3a 46bc 7828 433c 4140 183d
000000e0: 6e47 aa3c d8df 55bc b6e1 793b 6d19 903c
000000f0: 11bf 20bd 8499 c1bd 8013 6e3d c53c e0bd
00000100: 5bc1 a4be f4f4 a440 c073 b3be 65e1 223e
00000110: acb5 3abe 49f7 f33d c846 183e 963f d3be
00000120: f0e2 843c 1c41 c83d 5954 0f3e dbab fd3d
00000130: 726a dabd f5ce 213c dbfb ffbd 3655 09bc
00000140: 463b 083e 0496 ca3e 8854 753f 2057 b7be
00000150: ae2f edbe 8ad6 cd3e a1e5 03be f2e4 3abd
00000160: 3af0 6f3d 1027 3abe 3194 53bd 7b12 463c
00000170: 6a87 f03d f3d2 273e 37bf 9cbe 52e7 24be
00000180: f2cb 06bd 66eb aabd 4a4a 6dbf e9b6 b43d
00000190: 6374 163e 386b afbe 4d9d b8be d03b 34be
000001a0: f980 b6bd 87be 6abd 754d d83c 60b7 b93d
000001b0: 62ef 653d 9101 af3c 3535 f6bc b9e5 03bd
000001c0: 1476 cbbc 4605 84be 8bd1 1c3f 9d6c 343e
000001d0: 127e b33d 6cae 1bbe 1477 9a3d 3c5e 00bd
000001e0: d54d eb3b 39d1 ac3c efa0 8a3c 0ff1 8dbd
000001f0: 3457 af3d 846c e0bc e999 233f ae5f bebe
00000200: 7913 573e c79f abbe e12f 993d 7d8e 1f3e
00000210: bded c2be 817b 00bb 9660 a8bd 1ef3 583e
00000220: a034 9bbe 113a 0bbe 748b b83e 3a36 e83b
00000230: c1c3 403d d471 003d f695 09bc 339d 12bd
00000240: 7c04 3dbc cf76 483e 366e babd 3f81 5d3e
00000250: 7931 acbe 1016 77be 5470 dfbe 1c3f 0ebd
00000260: ecc7 073d 8e07 aa3d 33bc 7f3c 2338 57bb
00000270: eb95 babc 9959 31bd d764 0c39 7dd9 f2be
00000280: a732 fcbd 1185 223e 8906 803e e0b7 ac3c
00000290: ba71 d73f c1d9 d13d e18f 77bd e889 87bd
000002a0: 7c1b 253e f93e 2ebe e080 1e3e bf7c b0be
000002b0: a27a 7c3e cb85 df3d 028c 48bd 22ef e53c
000002c0: a426 cd3d 5368 cb3c 6979 7abe ee0c 2f3e
000002d0: 81b6 603c 497b d6bd f8e6 d13b b443 5ebe
000002e0: 5973 e63d d433 76bd c278 b23d 9c1b 1c3c
000002f0: 5a01 ff3c be37 133d 707c b53b a86d 2d3e
00000300: 853a 94be 282e 9cbd d489 58bd cc54 ffbc
00000310: 3d0c 783d 6c4b 1ec0 d039 1d3e 1d15 54be
00000320: 49b0 103d b974 073f 6d53 fbbc 81cf c4bd
00000330: c238 e9bc c5c0 babd 8096 413e beac 58bd
00000340: 2c85 a5bc c29c b23d 7a06 57bd a41b 95bd
00000350: 9e3a cbbe d044 05bd 9231 e9bd 92cc 633e
00000360: 08a8 9d3d 84e4 1cbe b7fc 5b3d 454c c63d
00000370: 36ee 153e ee9c cabd 9c5d 613b 7bee 42bd
00000380: 30fd f3bd d3ab 73be 10f9 723e f5f0 4bbd
00000390: 3971 983e 5312 4d3e ee03 9a3f 6f40 863d
000003a0: 4654 2abe e54c 35bd cfd0 05be 681a 19be
000003b0: ba9b 32bd a145 813e bc26 b73c e784 323d
000003c0: a2e6 313d aec0 803b 13e4 cc3c ac24 cf3b
000003d0: e473 423d 5c37 703d 66bc bc3d 69c9 cb3e
000003e0: 7a85 28bf ca0f 01be 697f 98be ae5a 213c
000003f0: cc23 92bc 5fa6 bdbc 1453 46bc 7935 ba3b
0.22257364 0.24258347 -0.2819534 0.6105649 0.1257876 -0.4746595 -0.35218275 0.072343156
0.021980077 -0.13000354 0.015009562 0.011774862 -0.029372465 -0.15272382 -0.17363802 0.18738809
0.18576753 0.6632138 0.6293461 0.6384841 -0.04241157 0.040883083 0.01594204 0.01829707
-0.024017047 -0.025136122 0.05567854 -0.052338928 0.029310962 0.07724304 0.24762554 -0.05838218
-1.9528002 -0.02485441 -0.045366526 -0.054763626 0.15211633 0.058870252 -0.39914396 -0.24155359
-0.08092664 0.020143058 -0.11149057 0.013286662 0.011347186 -0.026469292 0.06491797 0.025016192
0.084287286 -0.31648538 -0.6758397 0.06564424 0.5186334 -0.012098921 0.011911504 0.037170652
0.020786013 -0.013053857 0.003812892 0.017590249 -0.039244715 -0.09453109 0.058124065 -0.10949091
-0.3217877 5.1549015 -0.35049248 0.15906294 -0.18233365 0.119124 0.14870751 -0.4125945
0.016221493 0.09778044 0.1399702 0.123862945 -0.10664834 0.009876003 -0.124992095 -0.008382132
0.13303861 0.39567578 0.9583211 -0.3580866 -0.4632544 0.40202743 -0.12880565 -0.045628496
0.058578707 -0.18178964 -0.051655 0.012089367 0.11744578 0.16389064 -0.30614635 -0.16103867
-0.03290934 -0.0834568 -0.9269148 0.0882395 0.14692836 -0.3426149 -0.3605751 -0.17600942
-0.08911318 -0.057310607 0.026404122 0.09068179 0.056136496 0.021363052 -0.030054668 -0.032201502
-0.024836577 -0.25785273 0.6125724 0.17619558 0.087642804 -0.15203255 0.075422436 -0.03133987
0.007180909 0.021095859 0.016922442 -0.06930744 0.085615546 -0.027395494 0.63906723 -0.37182373
0.21003522 -0.33520338 0.07479835 0.15581699 -0.38072005 -0.0019604864 -0.08221547 0.21186492
-0.30313587 -0.1359637 0.36043894 0.0070865424 0.047061685 0.031358555 -0.00839757 -0.035794448
-0.011536714 0.19576572 -0.09103052 0.21631335 -0.33631495 -0.2412951 -0.43640387 -0.034728155
0.033149645 0.08302222 0.015608835 -0.0032839857 -0.022776565 -0.043298338 0.00013389006 -0.47431555
-0.12314349 0.15871073 0.25004986 0.021083772 1.6831582 0.102466114 -0.060439948 -0.066181004
0.16123766 -0.1701621 0.1547885 -0.34470174 0.24656156 0.10914191 -0.048961647 0.028068129
0.10017136 0.02483002 -0.24460377 0.17094776 0.013715387 -0.104727335 0.0064057074 -0.21705514
0.112524696 -0.06010802 0.08714439 0.009528067 0.031128574 0.03594183 0.0055385157 0.16936362
-0.28950897 -0.07625991 -0.05286582 -0.031168364 0.060558546 -2.4733534 0.15354085 -0.20711179
0.03532437 0.5291248 -0.030679429 -0.09609891 -0.028469447 -0.09118799 0.18905067 -0.052899115
-0.020205103 0.087213054 -0.05249641 -0.07280663 -0.3969316 -0.032536328 -0.11386408 0.22246006
0.07698065 -0.15321547 0.053707805 0.09682516 0.14641652 -0.09893213 0.003438807 -0.047590714
-0.11913526 -0.23796014 0.23727822 -0.04979034 0.29773882 0.20026521 1.2032449 0.065552585
-0.1663371 -0.044262785 -0.13067935 -0.1495148 -0.043605544 0.25248435 0.022357337 0.043583777
0.04343284 0.003929219 0.025011098 0.0063215103 0.047473803 0.058646545 0.09215622 0.398021
-0.6582867 -0.1260368 -0.29784706 0.00984828 -0.017839335 -0.023150621 -0.012104768 0.005682644

critic_body.layer1.bias f4 [64]
00000000: 5da4 0e3c a64d 283d eab3 4fbe c214 e4be
00000010: c406 9d3e fec8 89bd 51ca 963e 61c2 7d3d
00000020: 2d64 87bd 0e55 dc3d f61d 74be 5ad1 54be
00000030: 6afe 763e ab46 493d 8704 a9be 0140 7a3c
00000040: 4cae b63d 3d7f 8e3c ebcf 903e 6f32 4ebd
00000050: f8bd 7bbe 3123 74be e22c 08be 810f 3e3e
00000060: db3f 803e b66c b1be f421 623e 7cd2 973e
00000070: fc0a d43e 9caa bc3b 3c2b 8c3d 4b83 2bbf
00000080: f1c8 e23e 4dc6 d13c 66e0 81be 398c bf3e
00000090: ed27 8fbd f344 533e 6446 c93d 9dc6 7e3e
000000a0: 020f 793e 6e66 4ebe 2c04 87be 4b96 4abd
000000b0: 8354 af3e f4e2 04ba c9d7 c9be 5d76 01be
000000c0: da49 9e3e a99e afbe e9b0 41be c031 e13d
000000d0: 6cb1 623e f34c 1c3e 4d31 ddbd f197 fbbd
000000e0: cafa 95bd 44d3 82be c731 ebbd 145f 41be
000000f0: 824e 8abd 9804 dbbd 1796 50be a8d8 bc3e
0.008706179 0.041089676 -0.20283476 -0.44547087 0.30669224 -0.06727789 0.2945123 0.061952952
-0.06610904 0.107584104 -0.23839554 -0.20782986 0.24120489 0.04913966 -0.33011267 0.015274049
0.08919963 0.017394656 0.2828363 -0.050341066 -0.24584186 -0.2384155 -0.13298371 0.18560602
0.25048718 -0.34653252 0.22083265 0.29652774 0.4141463 0.005757643 0.06844184 -0.6699721
0.4429393 0.025607252 -0.25366515 0.3741167 -0.06990037 0.20631771 0.09827879 0.24880452
0.24322131 -0.20156261 -0.2637037 -0.049459737 0.34244165 -0.0005069219 -0.39422444 -0.12642808
0.3091572 -0.34300736 -0.18915142 0.10995817 0.22137994 0.15263729 -0.10800419 -0.1228484
-0.07323225 -0.25551808 -0.11484104 -0.18883926 -0.067532554 -0.106942356 -0.20369755 0.36884046

critic_body.layer2.weight f4 [64, 64]
00000000: 5888 183f 5c03 08bf b592 b73d 12d5 6cbd
00000010: 948c 3b3e 2d9e 693b 14b6 7bbe de11 26bf
00000020: ec39 a5be abc0 bcbd c2ea e9be b46c 3f3e
00000030: bfde 3fbf e3eb 5a3c 8b64 093f 6357 7bbd
00000040: 42f5 a53e 65e7 0a3f 46ec ebbd 877d dfbd
00000050: 9727 c7bc b75c b53d b193 04be 2195 d4bc
00000060: 6100 403e 84ce d23b c537 ec3d c9ba c03e
00000070: c44a 3c3d d7dc 8d3e 319f 34be 07b6 afbe
00000080: 681e b5be be89 aebf 79b7 8ebd bc37 fd3d
00000090: aeb3 8fbe c82b 3fbf 61c2 293e 7158 213f
000000a0: eb83 80bc fd5f b1bd 1784 71be 617c 13be
000000b0: 57b7 05be c5a6 e83d 7d14 f3bd 2634 6d3e
000000c0: afda 2dbe d112 90be 4591 e13c 1236 86bf
000000d0: 4845 d4bd 932c 283e 548a 1bbf b8c5 6abe
000000e0: 2aa0 833d 7c6a 1d3d fb5d a33d 9fc9 c53c
000000f0: acb9 c73e a812 7c3d 3ffe e6be f109 b33d
00000100: ee68 353e 51a9 04bf 4be8 fcbe efe9 36be
00000110: 493b ad3e 1d40 e7be 7662 eb3d 4671 73be
00000120: c979 cbbe 4b31 5a3e 6132 19bf a5a1 7e3e
00000130: a521 103f ebb9 ed3c e671 d03c 0994 bebd
00000140: f481 57be ef82 98bd 0ebf 323e 0ae3 333e
00000150: a4d2 623d 1dfb c83d e359 d9bb e118 0a3e
00000160: 0f1e bf3e 0be5 183c f4e7 c43e 7d0c 61be
00000170: 6cb3 3d3e e52c 7dbe 96fa 6fbe f152 a43e
00000180: b276 9b3e 0d6d 5c3e cc3e dfbd abb1 71be
00000190: bd56 5bbe a6ef e6bd 3d89 993d 3f3a 23bf
000001a0: a73d d4bd 5106 99bd f357 193e 7597 2bbe
000001b0: d2b6 da3e 7d66 7bbe 1863 9a3d a546 fabd
000001c0: 8b03 a13e d911 3bbe b1b1 8abe 45fa 6f3e
000001d0: 9b2d f3bd 1ef8 1f3c 931c 0bbe 2e6b 553e
000001e0: 94a8 333e 2162 82bd 4132 e73d 6236 b1bd
000001f0: b635 b63d c683 1c3e 0f76 88bd 8aa8 96bd
00000200: 075a cdbe b54f 9a3f c4ce c3bd a78b 0dbe
00000210: 75c0 3bbb 5277 1dbe 0011 193e a217 343f
00000220: 35ad e43e 3703 eebe a740 493f 1bdf 17bf
00000230: 2771 a8bd cff2 b93e 4cca b5bd 3897 623e
00000240: 97dc b3bc 0677 cdbe a559 16bf 50ad 28be
00000250: 4852 423e d36d 223e 770f 7c3f 4520 f7bd
00000260: 0b87 e43d 5623 67bd 70c8 223e aeba ed3e
00000270: 90a5 3fbe 265c b3bd a3f2 023e 1503 a73e
00000280: 57a0 19be b06c 143f 5863 eebe 6bc4 9cbe
00000290: 95ca 6a3e 271a 283e 455f 24bf 29e0 d53e
000002a0: 969f 1e3f ca49 cb3e 0bbf 55bd 6e8f 0c3f
000002b0: 99b7 6c3e 2853 e3bf a48c 3c3e d4f0 1cbe
000002c0: 5fb4 5a3c 18e9 37be f6c3 b83d 6963 ec3e
000002d0: c96b e8bd e5d2 ab3d 228e 253f 2410 013f
000002e0: 06bc afbd f668 553f 0c77 cd3e 2b83 823f
000002f0: ad43 4cbd 59a6 453f 64ca 6bbd e829 ccbe
00000300: 3663 3abd a513 82bf cd53 b0be 81e1 66bc
00000310: bbf4 c9bb 6e73 f13e 640c e93d b285 a4be
00000320: cb65 3abf 06ae ab3e c507 00c0 28ad 0bbc
00000330: f82e 62be d397 2ebf 95be 683e 895b 703e
00000340: 9da9 b73e d726 f73e 849c 103e acb7 8c3c
00000350: 5d2e 7d3c af84 06bf 3152 03bf 062d e63e
00000360: eac7 3f3d ea64 a43d df41 91be e37e 2fbe
00000370: 9232 b9bd 524e 933d 85d1 a2be 7675 43be
00000380: 2966 acbe 80bc b9be 3927 983e b43a 11bd
00000390: ab9b 16bf 469d 62be 376e 89bd f96c 563f
000003a0: 2aae 46be 1d1b 68bd 81ef b43e fb5d abbe
000003b0: ea79 833d ef1f 033f 87b7 acbe 0038 0cbd
000003c0: 8cc9 79be 829b adbe 64a3 69bd b443 e4be
000003d0: 37ef c63e 0518 923e a0f4 b8bf c2bd 2cbf
000003e0: 3c1b 77be d953 65bf 7233 99bd 65ca 62bf
000003f0: 2aee 913e 7f28 63be d609 7b3e 2d32 ec3e
0.59583044 -0.53130126 0.08963529 -0.057820387 0.18315345 0.0035647259 -0.24581176 -0.64871013
-0.32270753 -0.09216436 -0.45686918 0.1869381 -0.7494926 0.013361904 0.5366904 -0.061362635
0.3241368 0.5425933 -0.11519675 -0.10912614 -0.02431087 0.088555746 -0.12946965 -0.025950016
0.18750145 0.00643331 0.11534075 0.37642506 0.04596974 0.2770755 -0.17638852 -0.34318563
-0.3537476 -1.3635786 -0.069685884 0.12364146 -0.28066772 -0.7467618 0.16578056 0.63025576
-0.015687903 -0.086608864 -0.23585545 -0.14402916 -0.1305822 0.11359934 -0.11869142 0.23164424
-0.16977952 -0.28139356 0.02753509 -1.0485251 -0.10364777 0.16423254 -0.60757947 -0.22926986
0.06427033 0.03843163 0.0797691 0.024143992 0.39008844 0.06154123 -0.4511585 0.087421305
0.17715809 -0.51820856 -0.49395975 -0.17862676 0.33834293 -0.45166102 0.11493389 -0.23773679
-0.39741352 0.21307866 -0.598425 0.2486635 0.5630134 0.029019317 0.025444936 -0.09305579
-0.21045667 -0.074468486 0.17455694 0.17567077 0.055376664 0.09813521 -0.00663303 0.13486053
0.3732762 0.009331952 0.38458216 -0.2197742 0.18525475 -0.24724157 -0.23435435 0.3209453
0.30363995 0.21525975 -0.109006494 -0.23602931 -0.21419807 -0.11276178 0.07496879 -0.6376075
-0.10363322 -0.07471908 0.14974956 -0.16756995 0.42717606 -0.24550815 0.07538432 -0.122205056
0.31448016 -0.18268527 -0.27088693 0.23435314 -0.11873933 0.009763746 -0.13585119 0.20841667
0.17544776 -0.06366373 0.11288882 -0.08652951 0.08896963 0.15284643 -0.06663143 -0.07356365
-0.40107748 1.2055575 -0.09560922 -0.13822804 -0.002864865 -0.15377548 0.14947891 0.7034856
0.44663396 -0.46486828 0.78614277 -0.59324807 -0.08224707 0.3631806 -0.08876476 0.22127998
-0.021955771 -0.4012987 -0.58730537 -0.16472363 0.189767 0.15862207 0.984611 -0.12066702
0.1115857 -0.056430183 0.15896773 0.46431488 -0.18715501 -0.0875781 0.12787871 0.3261954
-0.15002571 0.57978344 -0.46560168 -0.30618605 0.22928841 0.16416226 -0.6420787 0.41772583
0.6196226 0.39704734 -0.052184146 0.54906356 0.23116912 -1.7759752 0.18413025 -0.15326244
0.013348668 -0.17960012 0.090217516 0.46169594 -0.113486834 0.08389834 0.6467 0.50415254
-0.085807845 0.8336328 0.40129888 1.0196279 -0.04986923 0.7720695 -0.05756606 -0.39875722
-0.04550477 -1.0162245 -0.34438935 -0.01409185 -0.0061632073 0.47158378 0.113793164 -0.3213325
-0.72811574 0.33531207 -2.0004742 -0.00852517 -0.2208823 -0.68200415 0.22728951 0.23472418
0.35871592 0.4827182 0.14122206 0.017177425 0.015452948 -0.5254621 -0.5129729 0.44956225
0.046821512 0.0802706 -0.28370568 -0.17138247 -0.09042849 0.07192673 -0.31800476 -0.19087777
-0.33671692 -0.36276627 0.29717425 -0.035456374 -0.5883128 -0.22130308 -0.06710475 0.8376003
-0.19402376 -0.056666482 0.35338977 -0.3347014 0.06419738 0.512206 -0.3373377 -0.034233093
-0.2439329 -0.33907706 -0.057040587 -0.44582903 0.3885438 0.2853395 -1.4449654 -0.6747705
-0.24131483 -0.89581066 -0.074805155 -0.8859008 0.28502017 -0.22183417 0.24515471 0.4613203

critic_body.layer2.bias f4 [64]
00000000: c276 aa3c 44b4 593e 3689 85bb 301b 003d
00000010: 929e 7b3e 4bf2 c63d 164f 0e3e abc9 643d
00000020: 792d 163e af5f 63bd 92ad 9ebe 6ec1 5cbd
00000030: 38c2 b1bd 058d 853d 6499 3cbd 3261 6a3a
00000040: 5784 653d 67de 573c 764e ec3d e5b8 b3be
00000050: 23a3 7abe e0e2 1b3e 5794 05bd 9383 443e
00000060: 57ab 2b3e 66cc dbbd 78e7 ad3c e100 6abd
00000070: 30b2 7b3e f4ab 1e3f deb4 633e 8494 f9bd
00000080: 19bc 103e e39b fcbd 3adc 23be 9992 8e3e
00000090: 93fb 1e3e 42f8 103e f65a b5bd de2c a53d
000000a0: e00b 0bbd 6486 29bc 4602 163e 4e4c 4f3e
000000b0: 6b91 e5be d687 1e3d e4e2 86bd b793 353e
000000c0: bf04 86be 0574 0f3e 2ef0 a73d 5459 fabb
000000d0: cc47 323e 6dab 8a3e fa98 34be d211 cf3e
000000e0: cbfc b7bd 2f5e 4f3d bf14 783e 8a87 923d
000000f0: 2538 9c3c d3bd abbd 1fab 623e 731d 743d
0.020808581 0.21260172 -0.0040751947 0.031275928 0.24572209 0.097141825 0.13897356 0.055856388
0.14665784 -0.055511173 -0.309918 -0.053895406 -0.086796224 0.06521038 -0.046044722 0.0008940875
0.056034412 0.013175583 0.11538403 -0.35102 -0.24476294 0.15223265 -0.03261217 0.19190817
0.1676458 -0.10732345 0.021228537 -0.057129744 0.24579692 0.6198113 0.22236964 -0.1218653
0.14134254 -0.123344205 -0.16001979 0.2784622 0.15525655 0.14157203 -0.0885524 0.08065198
-0.03394687 -0.010346983 0.14649305 0.20243952 -0.44837508 0.038703762 -0.06586245 0.1773213
-0.26175496 0.14009102 0.082001075 -0.0076400433 0.17410201 0.27083912 -0.17636481 0.40443283
-0.08983763 0.05062693 0.24226664 0.07154758 0.01906974 -0.083858155 0.2213559 0.059598397

fc_actor.weight f4 [4, 64]
00000000: 3fae 5bbe 9d85 a73e ca93 d93c 6f58 433e
00000010: 7167 6a3e 178f 063e 57a2 88be 7050 79be
00000020: fd24 863e 44d5 0abe c92f 90be a434 93be
00000030: 5f1b 3b3e 3c6e 063e 25de 503d 134e 213c
00000040: 8373 ab3d 270f 0abe d08b 933e a586 20be
00000050: f265 a33d 5753 68be 4195 bd3e a1be 8dbd
00000060: 11c8 b5bd 2a67 d8bd 86d9 763e 878d 5cbe
00000070: 9370 8bbe b046 83be e330 4dbe 88a2 ddbe
00000080: 474f 723e 89ae 34be b0f4 163d 9c90 613e
00000090: a460 9f3e 5aa0 7b3e 18af 67bd 2c09 223e
000000a0: 5273 a6bd f0b0 83bc 0dce 56be c52a 6e3e
000000b0: c350 663b 1554 84be 91e1 9bbe e126 b0bd
000000c0: 495b 583d 1b52 b23e cbef ad3e e498 90bd
000000d0: 4afe 34be 576b 203e 67d7 963e 3cd8 6fbe
000000e0: cd51 d23c 1c3e 90bd af1b b53d f23f a0be
000000f0: 1391 833e e3b4 0abe 5863 c3bd 9811 4cbe
00000100: 2913 3cbd f770 b4be fb67 ae3e 4c78 403e
00000110: 5738 09be 97c8 a2bd 9ee5 6bbe ad0d 98bd
00000120: b301 7abc 116c 7f3e 241e 543e 6c37 f8bd
00000130: a2c8 da3c acf4 edbc 5893 983e 6764 083e
00000140: 088b 383d b661 1e3e a451 96bd f618 1fbe
00000150: 32b3 e53e 014f 85be 088f a73e ee63 bf3c
00000160: 2f3b 9fba f4cf 9e3d 7237 9b3e 56ef ee3d
00000170: 9213 f6bd 4241 2dbd 325a 04be c78c 423e
00000180: 92d9 7ebe 726e 93be ecb0 b6be 7942 ab3e
00000190: dea1 1bbe 7dec 003d 8953 cf3e 8885 84be
000001a0: 329c a33a 4dca 1dbd e934 183d 068a 3a3e
000001b0: 2b0d df3e 7014 e13d f242 03be 3140 843d
000001c0: 23aa 873d f1ef bd3d c6e9 e5bc 0330 bf3e
000001d0: f748 c03d 76ba ee3d 8683 fcbd 3feb aabe
000001e0: 89e3 3e3e 6da1 d7bb cb80 42be 3bdf 25bb
000001f0: 5064 a2bd e8fb 13be 8efb ea3c cf80 04be
00000200: 9a4b 9fbe 34d5 40be e29b 053e 3324 86be
00000210: f7e7 b43e 8e5a 18be f7cd b63e 9dee 9b3d
00000220: 97da ad3d 9719 423d feaa f7bd 18e3 5bbd
00000230: d820 463e 81d9 15be ff09 983d e12d ca3e
00000240: 9a03 603d 9446 03bf 16e4 42be 8b06 c2bd
00000250: 365c 3e3d a150 dc3e 5245 1e3e 7887 9c3e
00000260: 39be 003f 988e 01be a1ba d73e 9f27 8c3a
00000270: 0976 f4be 4372 ab3e da6b 48be 69f8 a6bd
00000280: 8d34 8abe 8096 f0bb 4704 963e 17b1 80be
00000290: 86f9 36be fac7 debe 2095 9cba 1598 693e
000002a0: a260 92be cb8c a8be 2cb2 b13d ce6f 46be
000002b0: 61ba 83be 9214 3e3e e5f4 d73e c386 afbd
000002c0: 1c89 af3e 4be7 be3d 56ef 333e 7f0c 45be
000002d0: 913e c7be f117 463e 1170 563e e3f8 cfbc
000002e0: 1fb8 363d 1958 c73b 086f 49be 2a85 993c
000002f0: 9e31 98be ec9f 70be e19a fabd ea1f f63d
00000300: db41 0cbe cc2d 903e 00cb 833d 636a e4bd
00000310: 49b8 dfbd beb4 c23e a4ff dfbd a31b c13e
00000320: dac7 c0bd 89e8 873c ec3f af3e b21a 1cbe
00000330: d0f0 eebd db7d b3be 935a 833e cdde 5cbe
00000340: 6806 553e ad99 13be 3d61 593e 2d1c 273e
00000350: 7643 b1be 3ad0 cd3e b00f 4c3d aeca 52bd
00000360: 7057 07bd 2f09 5d3e aff5 8c3d 75f6 313e
00000370: db01 ec3d 034c 03bd 79fb 3fbe a654 243c
00000380: 6ff6 78be 222f 99bd 492d 31be 8fd2 083e
00000390: 9344 b93d b157 7abe b5bb cabd 02b6 52bd
000003a0: 76d9 cf3d 83f0 90bd 7a70 efbd d360 42be
000003b0: 8b09 f5bd 31a7 1dbf ff83 b73d 54a6 02bf
000003c0: fcc3 8abd f9b6 9b3e f7f7 27be 7580 19be
000003d0: ea44 3fbe e40d 693e 02ba 323e 2ab9 753e
000003e0: 0167 3bbd 1945 823e 19f6 9abd cbc9 77bd
000003f0: 9c99 b63e 282f d63d f709 563e d911 38be
-0.21453188 0.32719126 0.02655973 0.19076703 0.22891022 0.13140522 -0.26686355 -0.2434709
0.26200095 -0.13557917 -0.28161457 -0.287511 0.1827216 0.13127989 0.050993104 0.0098452745
0.083716415 -0.13482343 0.28817606 -0.15676363 0.07978429 -0.22688042 0.37027934 -0.06921125
-0.0887605 -0.10566552 0.24106416 -0.21538363 -0.27234325 -0.25639868 -0.2003818 -0.43288064
0.23663054 -0.17644705 0.036854446 0.2202782 0.31128418 0.24572888 -0.056563467 0.15823811
-0.08127464 -0.016075581 -0.2097704 0.23258503 0.0035143353 -0.258454 -0.3044553 -0.086011656
0.05282143 0.34828267 0.3397201 -0.070604116 -0.17675129 0.15665947 0.29461214 -0.2342233
0.025673771 -0.070430964 0.08843171 -0.31298786 0.2569662 -0.13545565 -0.09540433 -0.19928586
-0.04591671 -0.35242435 0.34063706 0.1879589 -0.13400398 -0.07948416 -0.23036811 -0.074244834
-0.015259194 0.24943568 0.20714623 -0.12119946 0.026706997 -0.029047333 0.29799914 0.1331955
0.045054466 0.15466961 -0.073397905 -0.15536866 0.44863278 -0.26036838 0.32726312 0.02336308
-0.0012148375 0.07754508 0.3031574 0.116667435 -0.120154515 -0.042298563 -0.12925032 0.18999015
-0.24887684 -0.287952 -0.35681856 0.33449152 -0.15198466 0.031475533 0.4049342 -0.25883126
0.0012482463 -0.038523007 0.037159834 0.18216714 0.43564734 0.10990226 -0.12818506 0.06457556
0.06624248 0.09274281 -0.028065573 0.37341318 0.09388917 0.11656658 -0.123297736 -0.33382604
0.18641485 -0.0065805227 -0.18994443 -0.0025310058 -0.07929289 -0.14451563 0.028684404 -0.12939762
-0.31112367 -0.1883133 0.13047746 -0.26199493 0.35333225 -0.14878294 0.35704014 0.07613871
0.08488958 0.047387686 -0.12093161 -0.05368337 0.19348466 -0.14633752 0.074237816 0.39488128
0.054690935 -0.5127957 -0.1903232 -0.09473904 0.046474658 0.43030265 0.15456131 0.30572104
0.50290257 -0.12652051 0.42134574 0.001069296 -0.47746304 0.33485612 -0.19572392 -0.08152849
-0.26993218 -0.0073421597 0.29300138 -0.2513511 -0.17868623 -0.43511945 -0.0011946298 0.22811921
-0.2858935 -0.32919917 0.08676562 -0.19378588 -0.25728133 0.18562534 0.42179027 -0.08570626
0.34284294 0.093214594 0.17571768 -0.19243048 -0.38914922 0.1934507 0.20941187 -0.025387233
0.044609185 0.0060835 -0.19671261 0.018740255 -0.29725355 -0.23498505 -0.12236572 0.12017806
-0.13696997 0.2815994 0.064352036 -0.11153104 -0.109238215 0.3802852 -0.109374315 0.37716398
-0.09413119 0.016590374 0.34228456 -0.15244558 -0.11667025 -0.35056958 0.2565504 -0.21569367
0.20803225 -0.14414091 0.212285 0.16319342 -0.3462178 0.40197927 0.04981965 -0.05146282
-0.03304237 0.21585535 0.06882798 0.17379172 0.115237914 -0.032054912 -0.18748273 0.010029947
-0.24312757 -0.07479693 -0.17302431 0.13361572 0.090462826 -0.24447514 -0.098990835 -0.051443107
0.10148899 -0.07077124 -0.11691375 -0.18982248 -0.11964711 -0.6158324 0.08960723 -0.51035047
-0.06775662 0.30413035 -0.16403185 -0.14990409 -0.18678632 0.22759205 0.17453769 0.23996416
-0.04575253 0.25443342 -0.07566471 -0.06049518 0.3566407 0.10458213 0.20902239 -0.17975558

fc_actor.bias f4 [4]
00000000: 6f71 acbd 0f2b 04bb a459 623d 9d86 05bd
-0.08420073 -0.0020167266 0.05526127 -0.03259908

fc_critic.weight f4 [1, 64]
00000000: 76a6 a4be 545b 973e 046c 06bf 5ae8 16bf
00000010: 2a7b 9a3e 5107 d0be e847 0abf c307 ff3e
00000020: 35bf a7be 0b7e 3cbf c4c6 b2be a7a8 40be
00000030: cdf9 84be c2d4 a73e 8d81 f7be fa0a acbe
00000040: 28ed 073f 8e4d e33e 83c1 a7be a67e eebe
00000050: bd41 36be eec9 dd3e aaa2 ed3e 4ba4 afbe
00000060: a848 b73e fee0 7ebe 7516 99be d65f 013f
00000070: 91d8 6a3e ce42 863e 5101 313e 5562 c23e
00000080: 6227 f83e cd75 3b3f 6bef cabe 45d5 713e
00000090: a27a b53e fd5e 993e 194d a4be 0da6 0b3f
000000a0: 14c2 13bf 28da c9be 4562 ad3e 3ba4 223e
000000b0: b3d3 91be 08d6 c53e 1af4 613e 7e34 0a3f
000000c0: f9c5 b1be 3531 fe3e 28f9 ca3e a1ae 093f
000000d0: 8f9d 123f 3eec 233f 894e aabe bf2e b43e
000000e0: 5b96 b23e 03c0 9a3e ff1a c53e 25ac 923e
000000f0: 2ad4 1f3f cce7 e3be 4991 1cbf e95e 03bf
-0.3215825 0.29561865 -0.5250857 -0.5894829 0.30172092 -0.40630582 -0.5401597 0.4981061
-0.32763067 -0.73629826 -0.3491727 -0.18814336 -0.25971833 0.3277951 -0.48341027 -0.33602124
0.53096247 0.44395107 -0.32764825 -0.46581 -0.17798515 0.43318123 0.46413165 -0.34305033
0.3579762 -0.24890515 -0.29899946 0.5053686 0.22934176 0.26222843 0.17285658 0.37965646
0.48467547 0.73226625 -0.39635786 0.23616512 0.35445124 0.29955283 -0.3209007 0.5455025
-0.57718015 -0.39424253 0.33864036 0.15882961 -0.28481826 0.38639855 0.22065774 0.53986347
-0.34721354 0.49646917 0.39643216 0.5378209 0.57271665 0.6403235 -0.33263043 0.35191914
0.34880337 0.30224618 0.3849716 0.2864696 0.6243311 -0.44512784 -0.6115919 -0.51316696
